…
Average actions of items: 36.44771506738272
The number of inters: 719405
The sparsity of the dataset: 99.96355449587001%
Remain Fields: ['user_id', 'item_id', 'timestamp']
Thu 14 May 2026 03:10:43 INFO  [Training]: train_batch_size = [512] train_neg_sample_args: [{'distribution': 'none', 'sample_num': 'none', 'alpha': 'none', 'dynamic': False, 'candidate_num': 0}]
Thu 14 May 2026 03:10:43 INFO  [Evaluation]: eval_batch_size = [2048] eval_args: [{'split': {'LS': 'valid_and_test'}, 'order': 'TO', 'group_by': 'user', 'mode': {'valid': 'full', 'test': 'full'}}]
Thu 14 May 2026 03:10:44 INFO  SASRec(
  (item_embedding): Embedding(19739, 2048, padding_idx=0)
  (position_embedding): Embedding(13, 2048)
  (trm_encoder): TransformerEncoder(
    (layer): ModuleList(
      (0-1): 2 x TransformerLayer(
        (multi_head_attention): MultiHeadAttention(
          (query): Linear(in_features=2048, out_features=2048, bias=True)
          (key): Linear(in_features=2048, out_features=2048, bias=True)
          (value): Linear(in_features=2048, out_features=2048, bias=True)
          (softmax): Softmax(dim=-1)
          (attn_dropout): Dropout(p=0.1, inplace=False)
          (dense): Linear(in_features=2048, out_features=2048, bias=True)
          (LayerNorm): LayerNorm((2048,), eps=1e-12, elementwise_affine=True)
          (out_dropout): Dropout(p=0.1, inplace=False)
        )
        (feed_forward): FeedForward(
          (dense_1): Linear(in_features=2048, out_features=256, bias=True)
          (dense_2): Linear(in_features=256, out_features=2048, bias=True)
          (LayerNorm): LayerNorm((2048,), eps=1e-12, elementwise_affine=True)
          (dropout): Dropout(p=0.1, inplace=False)
        )
      )
    )
  )
  (LayerNorm): LayerNorm((2048,), eps=1e-12, elementwise_affine=True)
  (dropout): Dropout(p=0.1, inplace=False)
  (loss_fct): CrossEntropyLoss()
)
Trainable parameters: 76145152
Thu 14 May 2026 03:10:45 INFO  FLOPs: 463794104.0
Thu 14 May 2026 03:14:24 INFO  epoch 0 training [time: 218.64s, train loss: 7987.5972]
Thu 14 May 2026 03:18:05 INFO  epoch 1 training [time: 220.47s, train loss: 7672.7603]
Thu 14 May 2026 03:21:54 INFO  epoch 2 training [time: 229.63s, train loss: 7646.1019]
…
